…
evaluate model performance on the validation set"],"metadata":{"colab":{"base_uri":"https://localhost:8080/"},"id":"Pq2BJOvT4rxM","outputId":"8ac1449a-01fb-4161-e42c-70716fbce17e","executionInfo":{"status":"ok","timestamp":1687073554199,"user_tz":-540,"elapsed":1628057,"user":{"displayName":"SEUNG HOON HAN","userId":"12879335556030098971"}}},"execution_count":null,"outputs":[{"output_type":"stream","name":"stderr","text":["\n","                   from  n    params  module                                       arguments                     \n","  0                  -1  1      1856  ultralytics.nn.modules.conv.Conv             [3, 64, 3, 2]                 \n","  1                  -1  1     73984  ultralytics.nn.modules.conv.Conv             [64, 128, 3, 2]               \n","  2                  -1  3    279808  ultralytics.nn.modules.block.C2f             [128, 128, 3, True]           \n","  3                  -1  1    295424  ultralytics.nn.modules.conv.Conv             [128, 256, 3, 2]              \n","  4                  -1  6   2101248  ultralytics.nn.modules.block.C2f             [256, 256, 6, True]           \n","  5                  -1  1   1180672  ultralytics.nn.modules.conv.Conv             [256, 512, 3, 2]              \n","  6                  -1  6   8396800  ultralytics.nn.modules.block.C2f             [512, 512, 6, True]           \n","  7                  -1  1   2360320  ultralytics.nn.modules.conv.Conv             [512, 512, 3, 2]              \n","  8                  -1  3   4461568  ultralytics.nn.modules.block.C2f             [512, 512, 3, True]           \n","  9                  -1  1    656896  ultralytics.nn.modules.block.SPPF            [512, 512, 5]                 \n"," 10                  -1  1         0  torch.nn.modules.upsampling.Upsample         [None, 2, 'nearest']          \n"," 11             [-1, 6]  1         0  ultralytics.nn.modules.conv.Concat           [1]                           \n"," 12                  -1  3   4723712  ultralytics.nn.modules.block.C2f             [1024, 512, 3]                \n"," 13                  -1  1         0  torch.nn.modules.upsampling.Upsample         [None, 2, 'nearest']          \n"," 14             [-1, 4]  1         0  ultralytics.nn.modules.conv.Concat           [1]                           \n"," 15                  -1  3   1247744  ultralytics.nn.modules.block.C2f             [768, 256, 3]                 \n"," 16                  -1  1    590336  ultralytics.nn.modules.conv.Conv             [256, 256, 3, 2]              \n"," 17            [-1, 12]  1         0  ultralytics.nn.modules.conv.Concat           [1]                           \n"," 18                  -1  3   4592640  ultralytics.nn.modules.block.C2f             [768, 512, 3]                 \n"," 19                  -1  1   2360320  ultralytics.nn.modules.conv.Conv             [512, 512, 3, 2]              \n"," 20             [-1, 9]  1         0  ultralytics.nn.modules.conv.Concat           [1]                           \n"," 21                  -1  3   4723712  ultralytics.nn.modules.block.C2f             [1024, 512, 3]                \n"," 22        [15, 18, 21]  1   5644480  ultralytics.nn.modules.head.Detect           [80, [256, 512, 512]]         \n","YOLOv8l summary: 365 layers, 43691520 parameters, 43691504 gradients\n","\n","Ultralytics YOLOv8.0.119 ðŸš€ Python-3.10.12 torch-2.0.1+cu118 CUDA:0 (Tesla V100-SXM2-16GB, 16151MiB)\n","\u001b[34m\u001b[1myolo/engine/trainer: \u001b[0mtask=detect, mode=train, model=yolov8l.yaml, data=/content/data/clothes_detection_nc6/data.yaml, epochs=15, patience=50, batch=16, i
…
5, warmup_epochs=3.0, warmup_momentum=0.8, warmup_bias_lr=0.1, box=7.5, cls=0.5, dfl=1.5, pose=12.0, kobj=1.0, label_smoothing=0.0, nbs=64, hsv_h=0.015, hsv_s=0.7, hsv_v=0.4, degrees=0.0, translate=0.1, scale=0.5, shear=0.0, perspective=0.0, flipud=0.0, fliplr=0.5, mosaic=1.0, mixup=0.0, copy_paste=0.0, cfg=None, v5loader=False, tracker=botsort.yaml, save_dir=runs/detect/train3\n","Overriding model.yaml nc=80 with nc=6\n","\n","                   from  n    params  module                                       arguments                     \n","  0                  -1  1      1856  ultralytics.nn.modules.conv.Conv             [3, 64, 3, 2]                 \n","  1                  -1  1     73984  ultralytics.nn.modules.conv.Conv             [64, 128, 3, 2]               \n","  2                  -1  3    279808  ultralytics.nn.modules.block.C2f             [128, 128, 3, True]           \n","  3                  -1  1    295424  ultralytics.nn.modules.conv.Conv             [128, 256, 3, 2]              \n","  4                  -1  6   2101248  ultralytics.nn.modules.block.C2f             [256, 256, 6, True]           \n","  5                  -1  1   1180672  ultralytics.nn.modules.conv.Conv             [256, 512, 3, 2]              \n","  6                  -1  6   8396800  ultralytics.nn.modules.block.C2f             [512, 512, 6, True]           \n","  7                  -1  1   2360320  ultralytics.nn.modules.conv.Conv             [512, 512, 3, 2]              \n","  8                  -1  3   4461568  ultralytics.nn.modules.block.C2f             [512, 512, 3, True]           \n","  9                  -1  1    656896  ultralytics.nn.modules.block.SPPF            [512, 512, 5]                 \n"," 10                  -1  1         0  torch.nn.modules.upsampling.Upsample         [None, 2, 'nearest']          \n"," 11             [-1, 6]  1         0  ultralytics.nn.modules.conv.Concat           [1]                           \n"," 12                  -1  3   4723712  ultralytics.nn.modules.block.C2f             [1024, 512, 3]                \n"," 13                  -1  1         0  torch.nn.modules.upsampling.Upsample         [None, 2, 'nearest']          \n"," 14             [-1, 4]  1         0  ultralytics.nn.modules.conv.Concat           [1]                           \n"," 15                  -1  3   1247744  ultralytics.nn.modules.block.C2f             [768, 256, 3]                 \n"," 16                  -1  1    590336  ultralytics.nn.modules.conv.Conv             [256, 256, 3, 2]              \n"," 17            [-1, 12]  1         0  ultralytics.nn.modules.conv.Concat           [1]                           \n"," 18                  -1  3   4592640  ultralytics.nn.modules.block.C2f             [768, 512, 3]                 \n"," 19                  -1  1   2360320  ultralytics.nn.modules.conv.Conv             [512, 512, 3, 2]              \n"," 20             [-1, 9]  1         0  ultralytics.nn.modules.conv.Concat           [1]                           \n"," 21                  -1  3   4723712  ultralytics.nn.modules.block.C2f             [1024, 512, 3]                \n"," 22        [15, 18, 21]  1   5587426  ultralytics.nn.modules.head.Detect           [6, [256, 512, 512]]          \n","YOLOv8l summary: 365 layers, 43634466 parameters, 43634450 gradients\n","\n","\u001b[34m\u001b[1mTensorBoard: \u001b[0mStart with 'tensorboard --logdir runs/detect/train3', view at http://localhost:6006/\n","\u001b[34m\u001b[1mAMP: \u001b[0mrunning Automatic Mixed Precision (AMP) checks with YOLOv8n...\n","\u001b[34m\u001b[1mAMP: \u001b[0mchecks passed âœ…\n","\u0
…
